Namespace(config='config.toml')
GPU list: ['A100-SXM4-40GB', 'A100-SXM4-40GB', 'A100-SXM4-40GB']
Number of gpu: 3
=========================================================================================================
Layer (type:depth-idx)                                  Output Shape              Param #
=========================================================================================================
DistributedDataParallel                                 --                        --
├─TSCNet: 1-1                                           [4, 1, 321, 201]          --
│    └─DenseEncoder: 2-1                                [4, 64, 321, 101]         --
│    │    └─Sequential: 3-1                             [4, 64, 321, 201]         448
│    │    └─DilatedDenseNet: 3-2                        [4, 64, 321, 201]         246,784
│    │    └─Sequential: 3-3                             [4, 64, 321, 101]         12,544
│    └─TSCB: 2-2                                        [4, 64, 321, 101]         --
│    │    └─ConformerBlock: 3-4                         [404, 321, 64]            108,424
│    │    └─ConformerBlock: 3-5                         [1284, 101, 64]           108,424
│    └─TSCB: 2-3                                        [4, 64, 321, 101]         --
│    │    └─ConformerBlock: 3-6                         [404, 321, 64]            108,424
│    │    └─ConformerBlock: 3-7                         [1284, 101, 64]           108,424
│    └─TSCB: 2-4                                        [4, 64, 321, 101]         --
│    │    └─ConformerBlock: 3-8                         [404, 321, 64]            108,424
│    │    └─ConformerBlock: 3-9                         [1284, 101, 64]           108,424
│    └─TSCB: 2-5                                        [4, 64, 321, 101]         --
│    │    └─ConformerBlock: 3-10                        [404, 321, 64]            108,424
│    │    └─ConformerBlock: 3-11                        [1284, 101, 64]           108,424
│    └─MaskDecoder: 2-6                                 [4, 1, 321, 201]          --
│    │    └─DilatedDenseNet: 3-12                       [4, 64, 321, 101]         246,784
│    │    └─SPConvTranspose2d: 3-13                     [4, 64, 321, 202]         24,704
│    │    └─Conv2d: 3-14                                [4, 1, 321, 201]          129
│    │    └─InstanceNorm2d: 3-15                        [4, 1, 321, 201]          2
│    │    └─PReLU: 3-16                                 [4, 1, 321, 201]          1
│    │    └─Conv2d: 3-17                                [4, 1, 321, 201]          2
│    │    └─PReLU: 3-18                                 [4, 201, 321]             201
│    └─ComplexDecoder: 2-7                              [4, 2, 321, 201]          --
│    │    └─DilatedDenseNet: 3-19                       [4, 64, 321, 101]         246,784
│    │    └─SPConvTranspose2d: 3-20                     [4, 64, 321, 202]         24,704
│    │    └─InstanceNorm2d: 3-21                        [4, 64, 321, 202]         128
│    │    └─PReLU: 3-22                                 [4, 64, 321, 202]         64
│    │    └─Conv2d: 3-23                                [4, 2, 321, 201]          258
=========================================================================================================
Total params: 1,670,929
Trainable params: 1,670,929
Non-trainable params: 0
Total mult-adds (G): 166.05
=========================================================================================================
Input size (MB): 2.06
Forward/backward pass size (MB): 18027.50
Params size (MB): 6.68
Estimated Total Size (MB): 18036.24
=========================================================================================================
==========================================================================================
Layer (type:depth-idx)                   Output Shape              Param #
==========================================================================================
DistributedDataParallel                  --                        --
├─Discriminator: 1-1                     [1, 1]                    --
│    └─Sequential: 2-1                   [1, 1]                    --
│    │    └─Conv2d: 3-1                  [1, 16, 100, 160]         512
│    │    └─InstanceNorm2d: 3-2          [1, 16, 100, 160]         32
│    │    └─PReLU: 3-3                   [1, 16, 100, 160]         16
│    │    └─Conv2d: 3-4                  [1, 32, 50, 80]           8,192
│    │    └─InstanceNorm2d: 3-5          [1, 32, 50, 80]           64
│    │    └─PReLU: 3-6                   [1, 32, 50, 80]           32
│    │    └─Conv2d: 3-7                  [1, 64, 25, 40]           32,768
│    │    └─InstanceNorm2d: 3-8          [1, 64, 25, 40]           128
│    │    └─PReLU: 3-9                   [1, 64, 25, 40]           64
│    │    └─Conv2d: 3-10                 [1, 128, 12, 20]          131,072
│    │    └─InstanceNorm2d: 3-11         [1, 128, 12, 20]          256
│    │    └─PReLU: 3-12                  [1, 128, 12, 20]          128
│    │    └─AdaptiveMaxPool2d: 3-13      [1, 128, 1, 1]            --
│    │    └─Flatten: 3-14                [1, 128]                  --
│    │    └─Linear: 3-15                 [1, 64]                   8,256
│    │    └─Dropout: 3-16                [1, 64]                   --
│    │    └─PReLU: 3-17                  [1, 64]                   64
│    │    └─Linear: 3-18                 [1, 1]                    65
│    │    └─LearnableSigmoid: 3-19       [1, 1]                    1
==========================================================================================
Total params: 181,650
Trainable params: 181,650
Non-trainable params: 0
Total mult-adds (M): 19.67
==========================================================================================
Input size (MB): 0.52
Forward/backward pass size (MB): 11.49
Params size (MB): 0.73
Estimated Total Size (MB): 12.73
==========================================================================================
…
GPU list: ['Quadro RTX 6000', 'Quadro RTX 6000', 'Quadro RTX 6000', 'Quadro RTX 6000', 'Quadro RTX 6000', 'Quadro RTX 6000', 'Quadro RTX 6000', 'Quadro RTX 6000']
Number of gpu: 8
=========================================================================================================
Layer (type:depth-idx)                                  Output Shape              Param #
=========================================================================================================
DistributedDataParallel                                 --                        --
├─TSCNet: 1-1                                           [4, 1, 321, 201]          --
│    └─DenseEncoder: 2-1                                [4, 64, 321, 101]         --
│    │    └─Sequential: 3-1                             [4, 64, 321, 201]         448
│    │    └─DilatedDenseNet: 3-2                        [4, 64, 321, 201]         246,784
│    │    └─Sequential: 3-3                             [4, 64, 321, 101]         12,544
│    └─TSCB: 2-2                                        [4, 64, 321, 101]         --
│    │    └─ConformerBlock: 3-4                         [404, 321, 64]            128,912
│    │    └─ConformerBlock: 3-5                         [1284, 101, 64]           128,912
│    └─TSCB: 2-3                                        [4, 64, 321, 101]         --
│    │    └─ConformerBlock: 3-6                         [404, 321, 64]            128,912
│    │    └─ConformerBlock: 3-7                         [1284, 101, 64]           128,912
│    └─TSCB: 2-4                                        [4, 64, 321, 101]         --
│    │    └─ConformerBlock: 3-8                         [404, 321, 64]            128,912
│    │    └─ConformerBlock: 3-9                         [1284, 101, 64]           128,912
│    └─TSCB: 2-5                                        [4, 64, 321, 101]         --
│    │    └─ConformerBlock: 3-10                        [404, 321, 64]            128,912
│    │    └─ConformerBlock: 3-11                        [1284, 101, 64]           128,912
│    └─MaskDecoder: 2-6                                 [4, 1, 321, 201]          --
│    │    └─DilatedDenseNet: 3-12                       [4, 64, 321, 101]         246,784
│    │    └─SPConvTranspose2d: 3-13                     [4, 64, 321, 202]         24,704
│    │    └─Conv2d: 3-14                                [4, 1, 321, 201]          129
│    │    └─InstanceNorm2d: 3-15                        [4, 1, 321, 201]          2
│    │    └─PReLU: 3-16                                 [4, 1, 321, 201]          1
│    │    └─Conv2d: 3-17                                [4, 1, 321, 201]          2
│    │    └─PReLU: 3-18                                 [4, 201, 321]             201
│    └─ComplexDecoder: 2-7                              [4, 2, 321, 201]          --
│    │    └─DilatedDenseNet: 3-19                       [4, 64, 321, 101]         246,784
│    │    └─SPConvTranspose2d: 3-20                     [4, 64, 321, 202]         24,704
│    │    └─InstanceNorm2d: 3-21                        [4, 64, 321, 202]         128
│    │    └─PReLU: 3-22                                 [4, 64, 321, 202]         64
│    │    └─Conv2d: 3-23                                [4, 2, 321, 201]          258
=========================================================================================================
Total params: 1,834,833
Trainable params: 1,834,833
Non-trainable params: 0
Total mult-adds (G): 166.15
=========================================================================================================
Input size (MB): 2.06
Forward/backward pass size (MB): 19251.65
Params size (MB): 7.34
…
